60000 train samples
10000 test samples
Model: "sequential"
_________________________________________________________________
Layer (type) Output Shape Param #
=================================================================
dense (Dense) (None, 512) 401920
_________________________________________________________________
dropout (Dropout) (None, 512) 0
_________________________________________________________________
dense_1 (Dense) (None, 512) 262656
_________________________________________________________________
dropout_1 (Dropout) (None, 512) 0
_________________________________________________________________
dense_2 (Dense) (None, 10) 5130
=================================================================
Total params: 669,706
Trainable params: 669,706
Non-trainable params: 0
_________________________________________________________________
Epoch 1/20
469/469 [==============================] - 5s 10ms/step - loss: 0.2450 -
accuracy: 0.9241 - val_loss: 0.1008 - val_accuracy: 0.9681
Epoch 2/20
469/469 [==============================] - 4s 10ms/step - loss: 0.1014 -
…
